…
Epoch 37/40
127/127 [==============================] - 8s - loss: 0.0183 - val_loss: 0.0331
Epoch 38/40
127/127 [==============================] - 8s - loss: 0.0161 - val_loss: 0.0225
Epoch 39/40
127/127 [==============================] - 8s - loss: 0.0142 - val_loss: 0.0299
Epoch 40/40
127/127 [==============================] - 8s - loss: 0.0154 - val_loss: 0.0278
_________________________________________________________________
Layer (type)                 Output Shape              Param #   
=================================================================
conv2d_1 (Conv2D)            (None, 31, 31, 12)        120       
_________________________________________________________________
leaky_re_lu_1 (LeakyReLU)    (None, 31, 31, 12)        0         
_________________________________________________________________
conv2d_2 (Conv2D)            (None, 15, 15, 16)        1744      
_________________________________________________________________
leaky_re_lu_2 (LeakyReLU)    (None, 15, 15, 16)        0         
_________________________________________________________________
conv2d_3 (Conv2D)            (None, 7, 7, 24)          3480      
_________________________________________________________________
leaky_re_lu_3 (LeakyReLU)    (None, 7, 7, 24)          0         
_________________________________________________________________
flatten_1 (Flatten)          (None, 1176)              0         
_________________________________________________________________
dense_1 (Dense)              (None, 1000)              1177000   
_________________________________________________________________
leaky_re_lu_4 (LeakyReLU)    (None, 1000)              0         
_________________________________________________________________
dense_2 (Dense)              (None, 100)               100100    
_________________________________________________________________
leaky_re_lu_5 (LeakyReLU)    (None, 100)               0         
_________________________________________________________________
dense_3 (Dense)              (None, 1)                 101       
=================================================================
Total params: 1,282,545.0
Trainable params: 1,282,545.0
Non-trainable params: 0.0
_________________________________________________________________
None
0.0279299